[net]
batch=64
subdivisions=16
width=448
height=448
channels=3
momentum=0.9
decay=0.0005
angle=0
saturation = 1.5
exposure = 1.5
hue=.1

learning_rate=0.0001
max_batches = 40000
policy=steps
steps=20,40,60,80,20000,30000
scales=5,5,2,2,.1,.1

[convolutional]
batch_normalize=1
filters=16
size=7
stride=2
pad=1
activation=leaky

[maxpool]
size=4
stride=4

[convolutional]
batch_normalize=1
filters=4
size=1
stride=1
pad=1
activation=leaky

[convolutional]
batch_normalize=1
filters=4
size=1
stride=1
pad=1
activation=leaky

[convolutional]
batch_normalize=1
filters=8
size=3
stride=1
pad=1
activation=leaky

[maxpool]
size=2
stride=2

[convolutional]
batch_normalize=1
filters=8
size=1
stride=1
pad=1
activation=leaky

[convolutional]
batch_normalize=1
filters=8
size=1
stride=1
pad=1
activation=leaky

[convolutional]
batch_normalize=1
filters=16
size=3
stride=1
pad=1
activation=leaky

[maxpool]
size=2
stride=2

[convolutional]
batch_normalize=1
filters=32
size=3
stride=1
pad=1
activation=leaky

[maxpool]
size=2
stride=2

[convolutional]
batch_normalize=1
filters=64
size=3
stride=1
pad=1
activation=leaky

[maxpool]
size=4
stride=4

###########

[connected]
output=256
activation=linear

[connected]
output=4096
activation=leaky

[dropout]
probability=.5

[connected]
output= 30
activation=linear

[region]
anchors = 1.08,1.19,  3.42,4.41,  6.63,11.38,  9.42,5.11,  16.62,10.52
bias_match=1
classes=1
coords=4
num=5
softmax=1
jitter=.2
rescore=1

object_scale=5
noobject_scale=1
class_scale=1
coord_scale=1

absolute=1
thresh = .6
random=1
